model/nn_parameters.npz (npz, 64646 bytes, 4 tensors)

W1 f8 [10, 784]
0.2808107082919262 -0.1707787122068325 -0.20519618008664087 0.479889712338199 -0.17657536684480024 -0.4065010011611778 0.15125651336011126 0.21019758040826209
-0.21656336399539944 -0.27829416570120047 0.08414513568601867 -0.1901989030309572 0.10758496672616524 0.1297449264317322 0.4452271573443882 -0.1069990367618202
-0.49654152026695597 0.29792326203916053 -0.38763414023640186 0.46664874369336895 -0.4152489231110934 -0.19896554298577007 0.4765795860685801 0.342536013599516
0.19225640866547955 -0.45191238230336217 -0.20150318831098968 0.39843279543306886 -0.16401256406166798 0.13645373845904085 -0.12874229382066615 0.34946359116115666
0.06950392045615965 -0.31474281425428197 0.17722513397696127 0.09643533137618968 0.2374757222647027 0.3108308202909234 -0.13921635721493728 -0.2838407099439482
0.3561480638732917 -0.42571722418876884 0.4515928165670749 -0.1379611838407066 -0.30690580422820757 -0.047840270416190094 0.25172289817395876 0.34867414135116204
-0.3009264835307294 -0.3779632713403716 -0.29095986243249444 -0.09203703999492405 -0.2517110428845245 -0.46398645529727345 0.022351230754987683 0.08830638967043558
-0.34657759456788495 0.34779963158216487 0.3361877053002925 0.10408127605214647 0.22709796667660398 0.4532858385101863 -0.28410232533083807 0.028024445946891265
0.004363466265555596 -0.4340418759588245 0.20805979014040876 -0.1338548679076884 -0.28439274041552437 0.23490129789215033 0.36040011669035016 0.34080048653230366
-0.4253478759148946 -0.41795994008002896 0.2710283343631046 -0.08753676698631588 -0.2932653369096319 0.40522583553901725 0.45988268788616204 0.3379766655057492
-0.011010792364677462 -0.1091729332241734 0.4032391717431256 0.39240343613600237 0.43829906294871057 -0.4631753771651439 -0.3893774581257327 -0.21484776487788124
0.23748477665144216 0.4667630192061086 0.25729141037329173 -0.32177667581553865 -0.42665079852679577 0.40863396186970674 -0.41516639773905983 -0.40468969440272756
0.1517171268396955 0.2165466526766353 0.22169269002492914 0.37103559209270653 0.16650429047564716 0.09251251581919619 -0.24413363956738812 0.13030011892993168
0.11653682413014925 -0.277791574316111 -0.42963113968832073 0.3224046432265619 0.1233016182040425 0.211144439705689 -0.13998618675855348 -0.13786285917819496
0.05582288220442977 -0.354732089881257 -0.34197647731634884 0.23834145051487396 -0.16330682347549308 0.36003350158534947 0.3963098264244894 -0.28425617844122747
0.2957344550417861 0.32961757859026686 -0.34656644682233345 0.382357639373953 0.24198307626516716 0.2175201343247015 -0.33830012737988985 -0.05274489633606831
0.3224652591769532 -0.12429917900488133 0.276576888102289 0.5428571360844215 0.1963195678571937 0.24224394761242685 0.14481265973762614 0.4621847652214445
0.07676502968797681 0.07994234587331545 0.40663758895385793 -0.22920749365345072 -0.2442565043918299 -0.2827256808778853 0.49466266331132464 0.12338338548276674
-0.4231947874762525 0.3425646802945508 -0.01445158338880718 -0.278943107277451 0.12336153736248014 0.28584292868510186 0.2307640281224924 -0.1158603780975013
0.13752217033785766 -0.029977457071833646 -0.006279406088557932 -0.036955604890002255 0.112295711286436 0.37970740041835266 0.07428444731461775 -0.17300757523979782
0.269245903311949 -0.021320626065041762 0.208451261746274 0.21153750853272116 0.06911712513466844 -0.46634897221522625 0.156320668599494 -0.4808762385649085
-0.489820023267012 0.4217852395601009 -0.09693774983301744 0.3649413623870571 0.33582245853330583 -0.353498103315832 0.34188957369764456 0.26891849367544
-0.11161844675891833 -0.059896280633522224 0.4715214436136423 0.37256192362852286 -0.08212688469296446 0.057140654623747754 0.3779852560625472 -0.20606643290882593
0.03091677889840714 -0.24437279987070273 -0.11496177033250653 -0.3932555381954532 -0.19321871601954985 -0.15061265030274665 -0.2406678692388489 -0.058426553492012825
0.03300199289443814 -0.18498452643771393 -0.22319674809793566 0.3652574124672585 0.4324151299447182 0.29390089234942196 -0.3410356830074188 0.23080625061835927
-0.3118820956287338 -0.49181784667017 0.2520208255582676 -0.026877006689951844 -0.007148770367420719 -0.03587834904020294 -0.18726047463307738 0.06217755330466357
0.22553578951660977 -0.1775657132380705 -0.44783172486072564 -0.5252053982045405 -0.4973600059507304 -0.3468099434620871 -0.33331615587143565 0.06623878713377497
-0.5453177600005107 0.19963259489958507 -0.08956991738188765 -0.2287720000568522 -0.07534428467197411 0.38486116535087 0.3813416832384317 0.3504203115163866
-0.22641092036359314 -0.016838685204047143 -0.37936226566520836 0.18223168038622195 0.17689643059152937 0.1430545447744061 -0.0666806072628796 0.3201332828677203
-0.09714930816564699 -0.03136267958031293 0.05339994172325767 -0.12144561558541897 -0.032077205219516465 -0.16355905821749192 -0.2547077074379365 0.10365963099801748
-0.37085231351367326 -0.44339022729309424 -0.28721538078936587 -0.27449023777742754 -0.5217061775416808 -0.2962325849207816 -0.1846674536162947 -0.037118513660084326
0.43206271052060885 0.46470613743919653 0.364743653028987 0.08642476035241281 0.05190535704943403 -0.018920239472297064 -0.025963318409641157 0.2898019364809887
00000000: 30bf 1e7a cdf8 d13f 0003 e4ab 13dc c5bf
00000010: 683d 5e51 de43 cabf 7e7b 0b57 83b6 de3f
00000020: d855 f088 059a c6bf 38d3 71c6 1c04 dabf
00000030: 2c26 1899 5f5c c33f e8a1 c61a c1e7 ca3f
00000040: 309d ef2a 59b8 cbbf 36ac 1655 92cf d1bf
00000050: 1891 e31d 898a b53f 8063 200a 7058 c8bf
00000060: 1050 a139 b08a bb3f cc50 ec53 7b9b c03f
00000070: d073 050c 9a7e dc3f f773 98f3 4964 bbbf
00000080: cac5 a915 56c7 dfbf d840 cbba 2c11 d33f
00000090: 1838 c86c ffce d8bf fa7a 38b1 92dd dd3f
000000a0: 0087 1d38 7093 dabf 54cf 13f2 b377 c9bf
000000b0: eac4 06aa 4780 de3f 2e2d 072c 1cec d53f
000000c0: 1c13 d5a5 db9b c83f fc9f a9e9 21ec dcbf
000000d0: 60ef ea41 dbca c9bf 287d 8244 ec7f d93f
000000e0: 7c94 631b 5dfe c4bf 3c9c 0cec 5077 c13f
000000f0: 3830 c9a2 a07a c0bf 3283 cb89 9c5d d63f
00000100: d390 4d49 02cb b13f 96e1 770b bf24 d4bf
00000110: 08ea 3a2d 50af c63f 628d 7062 fcaf b83f
00000120: b445 5cbe 9a65 ce3f 7141 eff3 a6e4 d33f
00000130: 6b38 a772 d7d1 c1bf 39e4 9e39 722a d2bf
00000140: 00a6 b73f 21cb d63f b504 cf74 f33e dbbf
00000150: 3de7 908e e5e6 dc3f b64c 5b4a b6a8 c1bf
00000160: f836 073e 58a4 d3bf 2f19 bd19 857e a8bf
00000170: 78ef d35b 3a1c d03f 941a 8458 ad50 d63f
00000180: ebf1 5027 6142 d3bf 9dbf 5fdc 8c30 d8bf
00000190: 8328 661d 169f d2bf f680 cc4c bd8f b7bf
000001a0: 1eca 4ea2 081c d0bf f87a d23e f4b1 ddbf
000001b0: a0da 78b4 3de3 963f f88f a95f 3f9b b63f
000001c0: a681 8cca 532e d6bf 2633 cd62 5942 d63f
000001d0: 2e40 e56f 1984 d53f 4919 c50c 12a5 ba3f
000001e0: 389b eed1 8b11 cd3f 3709 099b a202 dd3f
000001f0: 37dd 0085 bb2e d2bf 0759 52bb 70b2 9c3f
00000200: e92f 860e 6ddf 713f e49b 9593 57c7 dbbf
00000210: c401 2205 b4a1 ca3f 4476 0904 2822 c1bf
00000220: d77c d39b 7d33 d2bf f10b 1ee8 3e11 ce3f
00000230: 8137 aaa6 cb10 d73f 1a7f 07d8 accf d53f
00000240: fd8f 1e4c e638 dbbf 55a3 6b0c dbbf dabf
00000250: b03f 183a 8758 d13f 625f 673f cf68 b6bf
00000260: 55f2 c4f9 dbc4 d2bf 4099 c857 38ef d93f
00000270: d6ed 1dcc b76e dd3f fb21 4ae1 68a1 d53f
00000280: a9eb df88 d38c 86bf 3664 cee1 c1f2 bbbf
00000290: 2095 c6ab abce d93f aab2 424d 231d d93f
000002a0: aadb 4e83 170d dc3f 0c27 4f56 aaa4 ddbf
000002b0: c3c6 1c6e 8feb d8bf 0f75 e2ad 2180 cbbf
000002c0: 0306 82b2 e665 ce3f b93c 9eff 71df dd3f
000002d0: 8814 4664 7677 d03f c392 cf32 fd97 d4bf
000002e0: 2808 9f26 3f4e dbbf b3fa 900f 0f27 da3f
000002f0: 34fe 2b15 1692 dabf 8f3a 9f9a 6fe6 d9bf
00000300: 7781 0281 776b c33f 38f7 a6fb ccb7 cb3f
00000310: ceac b512 6d60 cc3f c22b 6c11 0cbf d73f
00000320: 8b48 1e39 0350 c53f 7104 ea75 e6ae b73f
00000330: 21cf e566 c53f cfbf 1d07 bc9e acad c03f
00000340: 932f 6b78 5bd5 bd3f f4b0 b24f 56c7 d1bf
00000350: ab7d 939b 137f dbbf f824 af15 47a2 d43f
00000360: 10f1 bae1 b190 bf3f a953 a2ef c706 cb3f
00000370: b186 023f 11eb c1bf 706f c07b 7da5 c1bf
00000380: 207b df1a d194 ac3f 496e 3839 eeb3 d6bf
00000390: decc 844e f1e2 d5bf 0f0d 9fff f881 ce3f
000003a0: d03b 05ed 3ce7 c4bf 0b80 b1f4 c90a d73f
000003b0: 52e7 e4e3 235d d93f 25d3 85d3 4031 d2bf
000003c0: 521c 2d35 50ed d23f 8cd7 0e54 7418 d53f
000003d0: c78a bf08 252e d6bf 3529 1f2d 8c78 d83f
000003e0: 6947 5f2b 4df9 ce3f 0fb4 9223 b3d7 cb3f
000003f0: 9d12 d593 b5a6 d5bf 96b1 9609 6101 abbf
00000400: 23b7 9053 45a3 d43f a2e0 be2c 12d2 bfbf
00000410: 60a4 4e8c 6fb3 d13f ff3f bced 155f e13f
00000420: d378 c1e5 ff20 c93f 9c1c 5384 d901 cf3f
00000430: 3c58 cfa2 3889 c23f 8779 d568 6f94 dd3f
00000440: 1780 fc7b dfa6 b33f ac66 1701 1a77 b43f
00000450: 1e64 78aa 5906 da3f 70ae 9ed0 ab56 cdbf
00000460: 485e 1911 cc43 cfbf c807 4774 2d18 d2bf
00000470: 8b5c 5e96 8da8 df3f a9ab 84b5 0d96 bf3f
00000480: 4c15 0397 9f15 dbbf 804e a868 94ec d53f
00000490: d524 3eb0 ca98 8dbf a2e1 cc30 34da d1bf
000004a0: d15e 8e28 9f94 bf3f 30b4 9f23 404b d23f
000004b0: db8d f0f8 ac89 cd3f fab9 d496 06a9 bdbf
000004c0: adbb 0994 539a c13f 438c f616 69b2 9ebf
000004d0: 8759 9e3c 6fb8 79bf 2e1b d054 d8eb a2bf
000004e0: 20d0 7467 69bf bc3f e324 b644 204d d83f
000004f0: fc55 d137 4e04 b33f 94be ceba 1c25 c6bf
00000500: 98a2 532b 533b d13f f1e8 b7fe 12d5 95bf
00000510: ab4d 01ec 87ae ca3f f13e 833c a913 cb3f
00000520: 4c04 0cf0 a8b1 b13f cb01 0c5c a9d8 ddbf
00000530: 606e a9cf 5002 c43f 5fd3 8321 adc6 debf
00000540: cce5 3615 3659 dfbf 7727 7684 87fe da3f
00000550: fbd7 4791 e9d0 b8bf fe3e 1a04 335b d73f
00000560: 606c 2a7b 1d7e d53f 3821 3c82 b69f d6bf
00000570: 27fc 77ce 84e1 d53f cb09 e8e9 f535 d13f
00000580: 22ba 75ca 0693 bcbf 2b2f f2ac b9aa aebf
00000590: 37bb eb46 682d de3f eb09 6ef7 0dd8 d73f
000005a0: e7ee e07b 4406 b5bf 1316 c335 8a41 ad3f
000005b0: 342a 4a12 e930 d83f dec9 1287 6260 cabf
000005c0: 9ab6 10e9 a5a8 9f3f ed01 bd9f 9b47 cfbf
000005d0: 0f4e de73 226e bdbf 6c4d e146 192b d9bf
000005e0: d3b8 2311 64bb c8bf e503 b57b 4647 c3bf
000005f0: 1918 ca69 34ce cebf 6ab0 eed0 15ea adbf
00000600: 6c6e 5e20 a3e5 a03f a173 a8ad 92ad c7bf
00000610: 4cbc d306 b691 ccbf 04c8 4aa0 6060 d73f
00000620: 361f 5a82 b0ac db3f a4fb 39b0 45cf d23f
00000630: f84b 5254 87d3 d5bf 4122 0f29 0f8b cd3f
00000640: 1cbc 3b52 e0f5 d3bf c566 c28f f179 dfbf
00000650: 6bc1 ebf4 1b21 d03f 5da9 fd62 a585 9bbf
00000660: 3279 f46e 0748 7dbf d237 869f a55e a2bf
00000670: ecf5 30b7 26f8 c7bf 8047 fa7b bcd5 af3f
00000680: 9393 0654 5bde cc3f 75cc 9f29 79ba c6bf
00000690: 6ad6 1865 46a9 dcbf bb13 1f8d 7bce e0bf
000006a0: 6464 f90f bfd4 dfbf b939 4655 2232 d6bf
000006b0: 6f8f 2c49 0d55 d5bf 695d 7770 06f5 b03f
000006c0: 5b2a 243b 3e73 e1bf 4498 2795 8f8d c93f
000006d0: 3552 dcd9 0dee b6bf 550a 3ea1 6648 cdbf
000006e0: f34c 9b56 c349 b3bf 04ad abb9 90a1 d83f
000006f0: fb14 87f2 e667 d83f ef49 7450 496d d63f
00000700: 499e 3575 08fb ccbf f33c 0909 293e 91bf
00000710: 0e96 17ab 7847 d8bf c4e7 c621 5e53 c73f
00000720: 74ba 15d0 8aa4 c63f bad4 ac7f 9c4f c23f
00000730: 6fb3 78f3 fa11 b1bf 5bca 114f 107d d43f
00000740: d485 66ed c6de b8bf b288 39e6 c40e a0bf
00000750: ae90 9eb6 3c57 ab3f 1695 2e53 0f17 bfbf
00000760: a9d4 ba66 6c6c a0bf af1c 01d3 80ef c4bf
00000770: 710b 5f8e 214d d0bf 2a4a 0d05 7089 ba3f
00000780: 85fa 8b57 0bbc d7bf 0bc0 6567 8160 dcbf
00000790: 3d81 d99e bc61 d2bf f6d1 9480 3f91 d1bf
000007a0: bf34 5527 d1b1 e0bf 9ba2 0f84 79f5 d2bf
000007b0: 5973 f5e0 2ea3 c7bf ce0c 7ea4 3201 a3bf
000007c0: d274 e05a eaa6 db3f 3051 a3cf bebd dd3f
000007d0: 6db7 4bc3 f557 d73f 6c3b 47df ee1f b63f
000007e0: 756f 07c6 5693 aa3f 6763 10c7 d35f 93bf
000007f0: 5d34 dccd 2096 9abf 5336 e06b 1d8c d23f

b1 f8 [10, 1]
0.7505857364498364 1.1967652244815419 0.5211421693682514 1.178710854243398 0.8662198683757861 0.8831169630843269 0.5388250452573102 0.468006308149927
0.6962964252718256 1.0816560456196713
00000000: 09ad dc60 cc04 e83f 9036 c24a f325 f33f
00000010: aa19 c057 32ad e03f 5ea6 a6e9 ffdb f23f
00000020: bd38 baba 12b8 eb3f 45ae 5f81 7e42 ec3f
00000030: f2aa 7405 0e3e e13f 33d7 f4ba d0f3 dd3f
00000040: 84a7 db70 0f48 e63f 9450 d791 764e f13f

W2 f8 [10, 10]
0.40325222488412266 -0.8244982181529641 0.09391018086558163 0.3529068440048751 -0.03040045223884102 -0.29561168875805255 0.5746696314231129 -0.52031634333148
0.15244481044851713 -0.4038167229757508 -0.5854015999849314 0.5344815793972427 -0.450921103242039 -0.22160039633502132 0.5244906233236215 -0.29061369787714403
-0.5976393906616859 -0.15058808467818283 0.2889625268110328 0.28294842701137884 0.4447348126176942 -0.5657544985164344 0.26227987990556667 0.24058332385319023
-0.33002302895578395 -0.11118314695217042 -0.7301060228001511 -0.13453009334333446 0.6831649848428869 0.2075534284322284 -0.047922590963980785 -0.3649091264702401
-0.10610541333477559 -0.19792074792827027 0.03945919285469345 0.9514019606462872 -0.43332806394133566 -0.047585807320019914 0.3907695815615803 -0.012381112137639792
0.5932106199879282 0.11537513329176403 -0.38550313828705346 0.17074607023389501 0.06810589883896911 0.17292574778322758 -0.047332441816937174 0.08086191555027888
-0.753650492988973 0.6912640634767513 0.4095073044013274 -0.2047298412845629 0.053796117169005925 -0.25761799383527983 0.0032446049413748126 0.656610722063411
0.41042549639004744 -0.23887969137829235 -0.19348314718852128 -0.013203646171771099 1.0899597891032218 0.2789838025191495 -0.49564979566818484 -0.08620829555070429
0.40891179138152606 -0.5163587683348099 -0.04324809756496118 -0.4401022645617461 -0.20620869953342072 -0.06407778495390026 -0.01682273298887093 0.02971866795762904
0.6993341631537561 -0.25149429357798303 0.017827231653816365 0.1132829082065701 -0.5301680262794464 0.35292004132191823 -0.45815867767652446 -0.39502208862162846
0.10086988257109869 -0.29042498598651073 -0.5747722886361594 0.40919469963618677 0.22666568009396068 -0.17925451078749916 0.07127506675521215 0.3256260015639044
0.13879222120849263 -0.5398097623550014 -0.06632228038948428 -0.28165679094856855 -0.4310161426292945 0.377514508451307 0.4285061756872616 0.185753093693052
-0.3371667143867523 0.7124316572808207 -0.5693289102597213 -0.05227447872900026
00000000: a9a8 7a6b e2ce d93f de78 5216 4a62 eabf
00000010: 1541 9463 7f0a b83f d545 6296 0696 d63f
00000020: bf04 99d0 4b21 9fbf a2fe e149 4deb d2bf
00000030: bfee 1e91 b163 e23f 41db c575 6ea6 e0bf
00000040: 5d20 a9c1 4f83 c33f 388f b018 22d8 d9bf
00000050: 6ac3 de22 9cbb e2bf 316b fa1c 791a e13f
00000060: 0f0d e02f e4db dcbf 2210 85db 665d ccbf
00000070: ba79 478f a0c8 e03f afb9 0932 6a99 d2bf
00000080: 962f b6a4 dc1f e3bf e716 6e69 7846 c3bf
00000090: f110 9bae 5c7e d23f 27fc 1db8 d31b d23f
000000a0: dc7b e500 8976 dc3f c82c 962d a91a e2bf
000000b0: 42f7 a58c 31c9 d03f 77ca f431 6fcb ce3f
000000c0: 5caf 12e9 181f d5bf 9da3 06ac 7f76 bcbf
000000d0: c741 514e 075d e7bf b964 9e37 4838 c1bf
000000e0: 6885 75d0 7cdc e53f 2601 a559 1c91 ca3f
000000f0: 9219 dc51 4f89 a8bf 2ae7 0ccf ab5a d7bf
00000100: 7d90 3370 b929 bbbf bfa0 c691 7755 c9bf
00000110: 3fc8 accd fe33 a43f 456f 4a86 e271 ee3f
00000120: 474a c4a1 a5bb dbbf bdf0 62bc 2a5d a8bf
00000130: a707 456b 5e02 d93f 7211 c1bd 445b 89bf
00000140: fd9d 8fd6 94fb e23f 1d80 4288 3989 bd3f
00000150: 4bb0 dc5a 15ac d8bf d19c c9d9 01db c53f
00000160: 2095 2d60 636f b13f 61c2 ae4f 6e22 c63f
00000170: be81 4933 f53b a8bf c8c5 c7d2 5db3 b43f
00000180: b30f 80a3 e71d e8bf 000c 31d0 d51e e63f
00000190: c91d f81f 5e35 da3f 528e 6a62 9634 cabf
000001a0: 540b c927 2a8b ab3f d48d 982e d07c d0bf
000001b0: 2798 9203 6e94 6a3f b4e3 2e7d f402 e53f
000001c0: 0226 1c4d 6944 da3f c4fc 1217 9c93 cebf
000001d0: ba3c c046 0ec4 c8bf 1938 f763 830a 8bbf
000001e0: 4e74 02ad 7970 f13f f7bd fbe0 deda d13f
000001f0: ef7d aaeb b9b8 dfbf d7bf 0832 bf11 b6bf
00000200: ebac bb5c 9c2b da3f f406 e0d2 0286 e0bf
00000210: 41bb 4f59 9d24 a6bf 1d0c 4cb0 a22a dcbf
00000220: 21c8 52f2 0b65 cabf 80f1 c6d6 6667 b0bf
00000230: 1ef0 1080 fa39 91bf 69b5 d50b 926e 9e3f
00000240: b311 f709 f260 e63f 6a13 8385 7b18 d0bf
00000250: b9b5 b943 4d41 923f b367 f1d1 1b00 bd3f
00000260: b429 c8ef 22f7 e0bf ac28 e5f0 3d96 d63f
00000270: 2bf4 3fc6 7852 ddbf e4f5 f4b9 0a48 d9bf
00000280: 9c52 cbce 9bd2 b93f 6d36 30ae 5296 d2bf
00000290: 2ddc cada 8864 e2bf e392 28f7 3e30 da3f
000002a0: 4b88 9089 6103 cd3f ae13 bfd2 cff1 c6bf
000002b0: cbdd bb30 153f b23f 026e dc70 0ed7 d43f
000002c0: 57cc 8389 f1c3 c13f 590a 6c1f 1f46 e1bf
000002d0: afdb 4439 7ffa b0bf 9c81 7434 aa06 d2bf
000002e0: 5d04 29bb c495 dbbf 9916 e49c 3229 d83f
000002f0: 0f7e ad2a a56c db3f 0f70 45e3 c1c6 c73f
00000300: e0d0 e5b2 2394 d5bf a2ff 9479 3dcc e63f
00000310: 4773 4743 f137 e2bf 10ee 1c71 b8c3 aabf

b2 f8 [10, 1]
-0.35046610543127443 0.45563401738799736 -0.46123488897665577 -0.1691381072320347 0.1242250783062675 0.23211441434408686 -0.31925654961070926 0.18513957703192985
-0.39073455860637074 -0.2172665580542158
00000000: 92c3 4b63 096e d6bf 4c19 e894 1b29 dd3f
00000010: 8c73 fb56 df84 ddbf b4d2 8847 51a6 c5bf
00000020: 1020 abf8 36cd bf3f b4de 44d5 ecb5 cd3f
00000030: b227 e705 b36e d4bf 9411 4656 a7b2 c73f
00000040: 2a68 a885 cb01 d9bf 64bd adfc 63cf cbbf
